Found 2736 unique tokens
/home/jupyter/iemo/code/../data//glove.42B.300d.txt
G Word embeddings: 1917494
G Null word embeddings: 90
1000
2000
3000
4000
_________________________________________________________________
Layer (type)                 Output Shape              Param #   
=================================================================
lstm_3 (LSTM)                (None, 100, 100)          54000     
_________________________________________________________________
dropout_3 (Dropout)          (None, 100, 100)          0         
_________________________________________________________________
AttentionDecoder (AttentionD (None, 100, 100)          150600    
_________________________________________________________________
dropout_4 (Dropout)          (None, 100, 100)          0         
_________________________________________________________________
flatten_1 (Flatten)          (None, 10000)             0         
_________________________________________________________________
dense_2 (Dense)              (None, 256)               2560256   
=================================================================
Total params: 2,764,856
Trainable params: 2,764,856
Non-trainable params: 0
_________________________________________________________________
_________________________________________________________________
Layer (type)                 Output Shape              Param #   
=================================================================
embedding_1 (Embedding)      (None, 50, 300)           821100    
_________________________________________________________________
lstm_1 (LSTM)                (None, 50, 234)           500760    
_________________________________________________________________
dropout_1 (Dropout)          (None, 50, 234)           0         
_________________________________________________________________
lstm_2 (LSTM)                (None, 234)               438984    
_________________________________________________________________
dropout_2 (Dropout)          (None, 234)               0         
_________________________________________________________________
dense_1 (Dense)              (None, 256)               60160     
=================================================================
Total params: 1,821,004
Trainable params: 1,821,004
Non-trainable params: 0
_________________________________________________________________
_________________________________________________________________
Layer (type)                 Output Shape              Param #   
=================================================================
conv2d_1 (Conv2D)            (None, 100, 95, 32)       320       
_________________________________________________________________
dropout_5 (Dropout)          (None, 100, 95, 32)       0         
_________________________________________________________________
activation_1 (Activation)    (None, 100, 95, 32)       0         
_________________________________________________________________
conv2d_2 (Conv2D)            (None, 50, 48, 64)        18496     
_________________________________________________________________
dropout_6 (Dropout)          (None, 50, 48, 64)        0         
_________________________________________________________________
activation_2 (Activation)    (None, 50, 48, 64)        0         
_________________________________________________________________
conv2d_3 (Conv2D)            (None, 25, 24, 64)        36928     
_________________________________________________________________
dropout_7 (Dropout)          (None, 25, 24, 64)        0         
_________________________________________________________________
activation_3 (Activation)    (None, 25, 24, 64)        0         
_________________________________________________________________
conv2d_4 (Conv2D)            (None, 13, 12, 128)       73856     
_________________________________________________________________
dropout_8 (Dropout)          (None, 13, 12, 128)       0         
_________________________________________________________________
activation_4 (Activation)    (None, 13, 12, 128)       0         
_________________________________________________________________
conv2d_5 (Conv2D)            (None, 7, 6, 128)         147584    
_________________________________________________________________
dropout_9 (Dropout)          (None, 7, 6, 128)         0         
_________________________________________________________________
activation_5 (Activation)    (None, 7, 6, 128)         0         
_________________________________________________________________
flatten_2 (Flatten)          (None, 5376)              0         
_________________________________________________________________
dense_3 (Dense)              (None, 256)               1376512   
=================================================================
Total params: 1,653,696
Trainable params: 1,653,696
Non-trainable params: 0
_________________________________________________________________
_________________________________________________________________
Layer (type)                 Output Shape              Param #   
=================================================================
merge_1 (Merge)              (None, 768)               0         
_________________________________________________________________
activation_6 (Activation)    (None, 768)               0         
_________________________________________________________________
dense_4 (Dense)              (None, 203)               156107    
_________________________________________________________________
activation_7 (Activation)    (None, 203)               0         
_________________________________________________________________
dense_5 (Dense)              (None, 4)                 816       
_________________________________________________________________
activation_8 (Activation)    (None, 4)                 0         
=================================================================
Total params: 6,396,479
Trainable params: 6,396,479
Non-trainable params: 0
_________________________________________________________________
Model1 Built
Train on 3838 samples, validate on 1098 samples
Epoch 1/30
  64/3838 [..............................] - ETA: 449s - loss: 1.6709 - acc: 0.1562
…
