Found 2736 unique tokens
/home/jupyter/iemo/code/../data//glove.42B.300d.txt
G Word embeddings: 1917494
G Null word embeddings: 90
1000
2000
3000
4000
_________________________________________________________________
Layer (type)                 Output Shape              Param #   
=================================================================
lstm_3 (LSTM)                (None, 100, 112)          65856     
_________________________________________________________________
dropout_3 (Dropout)          (None, 100, 112)          0         
_________________________________________________________________
AttentionDecoder (AttentionD (None, 100, 112)          188832    
_________________________________________________________________
dropout_4 (Dropout)          (None, 100, 112)          0         
_________________________________________________________________
flatten_1 (Flatten)          (None, 11200)             0         
_________________________________________________________________
dense_2 (Dense)              (None, 256)               2867456   
=================================================================
Total params: 3,122,144
Trainable params: 3,122,144
Non-trainable params: 0
_________________________________________________________________
_________________________________________________________________
Layer (type)                 Output Shape              Param #   
=================================================================
embedding_1 (Embedding)      (None, 50, 300)           821100    
_________________________________________________________________
lstm_1 (LSTM)                (None, 50, 238)           513128    
_________________________________________________________________
dropout_1 (Dropout)          (None, 50, 238)           0         
_________________________________________________________________
lstm_2 (LSTM)                (None, 238)               454104    
_________________________________________________________________
dropout_2 (Dropout)          (None, 238)               0         
_________________________________________________________________
dense_1 (Dense)              (None, 256)               61184     
=================================================================
Total params: 1,849,516
Trainable params: 1,849,516
Non-trainable params: 0
_________________________________________________________________
_________________________________________________________________
Layer (type)                 Output Shape              Param #   
=================================================================
conv2d_1 (Conv2D)            (None, 100, 95, 32)       320       
_________________________________________________________________
dropout_5 (Dropout)          (None, 100, 95, 32)       0         
_________________________________________________________________
activation_1 (Activation)    (None, 100, 95, 32)       0         
_________________________________________________________________
conv2d_2 (Conv2D)            (None, 50, 48, 64)        18496     
_________________________________________________________________
dropout_6 (Dropout)          (None, 50, 48, 64)        0         
_________________________________________________________________
activation_2 (Activation)    (None, 50, 48, 64)        0         
_________________________________________________________________
conv2d_3 (Conv2D)            (None, 25, 24, 64)        36928     
_________________________________________________________________
dropout_7 (Dropout)          (None, 25, 24, 64)        0         
_________________________________________________________________
activation_3 (Activation)    (None, 25, 24, 64)        0         
_________________________________________________________________
conv2d_4 (Conv2D)            (None, 13, 12, 128)       73856     
_________________________________________________________________
dropout_8 (Dropout)          (None, 13, 12, 128)       0         
_________________________________________________________________
activation_4 (Activation)    (None, 13, 12, 128)       0         
_________________________________________________________________
conv2d_5 (Conv2D)            (None, 7, 6, 128)         147584    
_________________________________________________________________
dropout_9 (Dropout)          (None, 7, 6, 128)         0         
_________________________________________________________________
activation_5 (Activation)    (None, 7, 6, 128)         0         
_________________________________________________________________
flatten_2 (Flatten)          (None, 5376)              0         
_________________________________________________________________
dense_3 (Dense)              (None, 256)               1376512   
=================================================================
Total params: 1,653,696
Trainable params: 1,653,696
Non-trainable params: 0
_________________________________________________________________
_________________________________________________________________
Layer (type)                 Output Shape              Param #   
=================================================================
merge_1 (Merge)              (None, 768)               0         
_________________________________________________________________
activation_6 (Activation)    (None, 768)               0         
_________________________________________________________________
dense_4 (Dense)              (None, 189)               145341    
_________________________________________________________________
activation_7 (Activation)    (None, 189)               0         
_________________________________________________________________
dense_5 (Dense)              (None, 4)                 760       
_________________________________________________________________
activation_8 (Activation)    (None, 4)                 0         
=================================================================
Total params: 6,771,457
Trainable params: 6,771,457
Non-trainable params: 0
_________________________________________________________________
Model1 Built
Train on 3838 samples, validate on 1098 samples
Epoch 1/30
  64/3838 [..............................] - ETA: 458s - loss: 1.9489 - acc: 0.2031
…
